{"config": {"input_layers": [["input_2", 0, 0]], "name": "model_1", "output_layers": [["dense_2", 0, 0]], "layers": [{"config": {"batch_input_shape": [null, null, null, 3], "name": "input_2", "sparse": false, "dtype": "float32"}, "class_name": "InputLayer", "name": "input_2", "inbound_nodes": []}, {"config": {"data_format": "channels_last", "trainable": false, "name": "conv1_pad", "padding": [[3, 3], [3, 3]]}, "class_name": "ZeroPadding2D", "name": "conv1_pad", "inbound_nodes": [[["input_2", 0, 0, {}]]]}, {"config": {"kernel_initializer": {"config": {"distribution": "normal", "scale": 2.0, "seed": null, "mode": "fan_in"}, "class_name": "VarianceScaling"}, "activation": "linear", "padding": "valid", "kernel_constraint": null, "filters": 64, "kernel_regularizer": null, "strides": [2, 2], "trainable": false, "bias_constraint": null, "activity_regularizer": null, "bias_initializer": {"config": {}, "class_name": "Zeros"}, "kernel_size": [7, 7], "name": "conv1", "data_format": "channels_last", "bias_regularizer": null, "use_bias": true, "dilation_rate": [1, 1]}, "class_name": "Conv2D", "name": "conv1", "inbound_nodes": [[["conv1_pad", 0, 0, {}]]]}, {"config": {"gamma_initializer": {"config": {}, "class_name": "Ones"}, "axis": 3, "beta_initializer": {"config": {}, "class_name": "Zeros"}, "moving_mean_initializer": {"config": {}, "class_name": "Zeros"}, "gamma_constraint": null, "gamma_regularizer": null, "trainable": false, "moving_variance_initializer": {"config": {}, "class_name": "Ones"}, "scale": true, "beta_constraint": null, "epsilon": 0.001, "name": "bn_conv1", "momentum": 0.99, "beta_regularizer": null, "center": true}, "class_name": "BatchNormalization", "name": "bn_conv1", "inbound_nodes": [[["conv1", 0, 0, {}]]]}, {"config": {"name": "activation_50", "activation": "relu", "trainable": false}, "class_name": "Activation", "name": "activation_50", "inbound_nodes": [[["bn_conv1", 0, 0, {}]]]}, {"config": {"data_format": "channels_last", "trainable": false, "name": "pool1_pad", "padding": [[1, 1], [1, 1]]}, "class_name": "ZeroPadding2D", "name": "pool1_pad", "inbound_nodes": [[["activation_50", 0, 0, {}]]]}, {"config": {"name": "max_pooling2d_2", "padding": "valid", "strides": [2, 2], "trainable": false, "data_format": "channels_last", "pool_size": [3, 3]}, "class_name": "MaxPooling2D", "name": "max_pooling2d_2", "inbound_nodes": [[["pool1_pad", 0, 0, {}]]]}, {"config": {"kernel_initializer": {"config": {"distribution": "normal", "scale": 2.0, "seed": null, "mode": "fan_in"}, "class_name": "VarianceScaling"}, "activation": "linear", "padding": "valid", "kernel_constraint": null, "filters": 64, "kernel_regularizer": null, "strides": [1, 1], "trainable": false, "bias_constraint": null, "activity_regularizer": null, "bias_initializer": {"config": {}, "class_name": "Zeros"}, "kernel_size": [1, 1], "name": "res2a_branch2a", "data_format": "channels_last", "bias_regularizer": null, "use_bias": true, "dilation_rate": [1, 1]}, "class_name": "Conv2D", "name": "res2a_branch2a", "inbound_nodes": [[["max_pooling2d_2", 0, 0, {}]]]}, {"config": {"gamma_initializer": {"config": {}, "class_name": "Ones"}, "axis": 3, "beta_initializer": {"config": {}, "class_name": "Zeros"}, "moving_mean_initializer": {"config": {}, "class_name": "Zeros"}, "gamma_constraint": null, "gamma_regularizer": null, "trainable": false, "moving_variance_initializer": {"config": {}, "class_name": "Ones"}, "scale": true, "beta_constraint": null, "epsilon": 0.001, "name": "bn2a_branch2a", "momentum": 0.99, "beta_regularizer": null, "center": true}, "class_name": "BatchNormalization", "name": "bn2a_branch2a", "inbound_nodes": [[["res2a_branch2a", 0, 0, {}]]]}, {"config": {"name": "activation_51", "activation": "relu", "trainable": false}, "class_name": "Activation", "name": "activation_51", "inbound_nodes": [[["bn2a_branch2a", 0, 0, {}]]]}, {"config": {"kernel_initializer": {"config": {"distribution": "normal", "scale": 2.0, "seed": null, "mode": "fan_in"}, "class_name": "VarianceScaling"}, "activation": "linear", "padding": "same", "kernel_constraint": null, "filters": 64, "kernel_regularizer": null, "strides": [1, 1], "trainable": false, "bias_constraint": null, "activity_regularizer": null, "bias_initializer": {"config": {}, "class_name": "Zeros"}, "kernel_size": [3, 3], "name": "res2a_branch2b", "data_format": "channels_last", "bias_regularizer": null, "use_bias": true, "dilation_rate": [1, 1]}, "class_name": "Conv2D", "name": "res2a_branch2b", "inbound_nodes": [[["activation_51", 0, 0, {}]]]}, {"config": {"gamma_initializer": {"config": {}, "class_name": "Ones"}, "axis": 3, "beta_initializer": {"config": {}, "class_name": "Zeros"}, "moving_mean_initializer": {"config": {}, "class_name": "Zeros"}, "gamma_constraint": null, "gamma_regularizer": null, "trainable": false, "moving_variance_initializer": {"config": {}, "class_name": "Ones"}, "scale": true, "beta_constraint": null, "epsilon": 0.001, "name": "bn2a_branch2b", "momentum": 0.99, "beta_regularizer": null, "center": true}, "class_name": "BatchNormalization", "name": "bn2a_branch2b", "inbound_nodes": [[["res2a_branch2b", 0, 0, {}]]]}, {"config": {"name": "activation_52", "activation": "relu", "trainable": false}, "class_name": "Activation", "name": "activation_52", "inbound_nodes": [[["bn2a_branch2b", 0, 0, {}]]]}, {"config": {"kernel_initializer": {"config": {"distribution": "normal", "scale": 2.0, "seed": null, "mode": "fan_in"}, "class_name": "VarianceScaling"}, "activation": "linear", "padding": "valid", "kernel_constraint": null, "filters": 256, "kernel_regularizer": null, "strides": [1, 1], "trainable": false, "bias_constraint": null, "activity_regularizer": null, "bias_initializer": {"config": {}, "class_name": "Zeros"}, "kernel_size": [1, 1], "name": "res2a_branch2c", "data_format": "channels_last", "bias_regularizer": null, "use_bias": true, "dilation_rate": [1, 1]}, "class_name": "Conv2D", "name": "res2a_branch2c", "inbound_nodes": [[["activation_52", 0, 0, {}]]]}, {"config": {"kernel_initializer": {"config": {"distribution": "normal", "scale": 2.0, "seed": null, "mode": "fan_in"}, "class_name": "VarianceScaling"}, "activation": "linear", "padding": "valid", "kernel_constraint": null, "filters": 256, "kernel_regularizer": null, "strides": [1, 1], "trainable": false, "bias_constraint": null, "activity_regularizer": null, "bias_initializer": {"config": {}, "class_name": "Zeros"}, "kernel_size": [1, 1], "name": "res2a_branch1", "data_format": "channels_last", "bias_regularizer": null, "use_bias": true, "dilation_rate": [1, 1]}, "class_name": "Conv2D", "name": "res2a_branch1", "inbound_nodes": [[["max_pooling2d_2", 0, 0, {}]]]}, {"config": {"gamma_initializer": {"config": {}, "class_name": "Ones"}, "axis": 3, "beta_initializer": {"config": {}, "class_name": "Zeros"}, "moving_mean_initializer": {"config": {}, "class_name": "Zeros"}, "gamma_constraint": null, "gamma_regularizer": null, "trainable": false, "moving_variance_initializer": {"config": {}, "class_name": "Ones"}, "scale": true, "beta_constraint": null, "epsilon": 0.001, "name": "bn2a_branch2c", "momentum": 0.99, "beta_regularizer": null, "center": true}, "class_name": "BatchNormalization", "name": "bn2a_branch2c", "inbound_nodes": [[["res2a_branch2c", 0, 0, {}]]]}, {"config": {"gamma_initializer": {"config": {}, "class_name": "Ones"}, "axis": 3, "beta_initializer": {"config": {}, "class_name": "Zeros"}, "moving_mean_initializer": {"config": {}, "class_name": "Zeros"}, "gamma_constraint": null, "gamma_regularizer": null, "trainable": false, "moving_variance_initializer": {"config": {}, "class_name": "Ones"}, "scale": true, "beta_constraint": null, "epsilon": 0.001, "name": "bn2a_branch1", "momentum": 0.99, "beta_regularizer": null, "center": true}, "class_name": "BatchNormalization", "name": "bn2a_branch1", "inbound_nodes": [[["res2a_branch1", 0, 0, {}]]]}, {"config": {"name": "add_17", "trainable": false}, "class_name": "Add", "name": "add_17", "inbound_nodes": [[["bn2a_branch2c", 0, 0, {}], ["bn2a_branch1", 0, 0, {}]]]}, {"config": {"name": "activation_53", "activation": "relu", "trainable": false}, "class_name": "Activation", "name": "activation_53", "inbound_nodes": [[["add_17", 0, 0, {}]]]}, {"config": {"kernel_initializer": {"config": {"distribution": "normal", "scale": 2.0, "seed": null, "mode": "fan_in"}, "class_name": "VarianceScaling"}, "activation": "linear", "padding": "valid", "kernel_constraint": null, "filters": 64, "kernel_regularizer": null, "strides": [1, 1], "trainable": false, "bias_constraint": null, "activity_regularizer": null, "bias_initializer": {"config": {}, "class_name": "Zeros"}, "kernel_size": [1, 1], "name": "res2b_branch2a", "data_format": "channels_last", "bias_regularizer": null, "use_bias": true, "dilation_rate": [1, 1]}, "class_name": "Conv2D", "name": "res2b_branch2a", "inbound_nodes": [[["activation_53", 0, 0, {}]]]}, {"config": {"gamma_initializer": {"config": {}, "class_name": "Ones"}, "axis": 3, "beta_initializer": {"config": {}, "class_name": "Zeros"}, "moving_mean_initializer": {"config": {}, "class_name": "Zeros"}, "gamma_constraint": null, "gamma_regularizer": null, "trainable": false, "moving_variance_initializer": {"config": {}, "class_name": "Ones"}, "scale": true, "beta_constraint": null, "epsilon": 0.001, "name": "bn2b_branch2a", "momentum": 0.99, "beta_regularizer": null, "center": true}, "class_name": "BatchNormalization", "name": "bn2b_branch2a", "inbound_nodes": [[["res2b_branch2a", 0, 0, {}]]]}, {"config": {"name": "activation_54", "activation": "relu", "trainable": false}, "class_name": "Activation", "name": "activation_54", "inbound_nodes": [[["bn2b_branch2a", 0, 0, {}]]]}, {"config": {"kernel_initializer": {"config": {"distribution": "normal", "scale": 2.0, "seed": null, "mode": "fan_in"}, "class_name": "VarianceScaling"}, "activation": "linear", "padding": "same", "kernel_constraint": null, "filters": 64, "kernel_regularizer": null, "strides": [1, 1], "trainable": false, "bias_constraint": null, "activity_regularizer": null, "bias_initializer": {"config": {}, "class_name": "Zeros"}, "kernel_size": [3, 3], "name": "res2b_branch2b", "data_format": "channels_last", "bias_regularizer": null, "use_bias": true, "dilation_rate": [1, 1]}, "class_name": "Conv2D", "name": "res2b_branch2b", "inbound_nodes": [[["activation_54", 0, 0, {}]]]}, {"config": {"gamma_initializer": {"config": {}, "class_name": "Ones"}, "axis": 3, "beta_initializer": {"config": {}, "class_name": "Zeros"}, "moving_mean_initializer": {"config": {}, "class_name": "Zeros"}, "gamma_constraint": null, "gamma_regularizer": null, "trainable": false, "moving_variance_initializer": {"config": {}, "class_name": "Ones"}, "scale": true, "beta_constraint": null, "epsilon": 0.001, "name": "bn2b_branch2b", "momentum": 0.99, "beta_regularizer": null, "center": true}, "class_name": "BatchNormalization", "name": "bn2b_branch2b", "inbound_nodes": [[["res2b_branch2b", 0, 0, {}]]]}, {"config": {"name": "activation_55", "activation": "relu", "trainable": false}, "class_name": "Activation", "name": "activation_55", "inbound_nodes": [[["bn2b_branch2b", 0, 0, {}]]]}, {"config": {"kernel_initializer": {"config": {"distribution": "normal", "scale": 2.0, "seed": null, "mode": "fan_in"}, "class_name": "VarianceScaling"}, "activation": "linear", "padding": "valid", "kernel_constraint": null, "filters": 256, "kernel_regularizer": null, "strides": [1, 1], "trainable": false, "bias_constraint": null, "activity_regularizer": null, "bias_initializer": {"config": {}, "class_name": "Zeros"}, "kernel_size": [1, 1], "name": "res2b_branch2c", "data_format": "channels_last", "bias_regularizer": null, "use_bias": true, "dilation_rate": [1, 1]}, "class_name": "Conv2D", "name": "res2b_branch2c", "inbound_nodes": [[["activation_55", 0, 0, {}]]]}, {"config": {"gamma_initializer": {"config": {}, "class_name": "Ones"}, "axis": 3, "beta_initializer": {"config": {}, "class_name": "Zeros"}, "moving_mean_initializer": {"config": {}, "class_name": "Zeros"}, "gamma_constraint": null, "gamma_regularizer": null, "trainable": false, "moving_variance_initializer": {"config": {}, "class_name": "Ones"}, "scale": true, "beta_constraint": null, "epsilon": 0.001, "name": "bn2b_branch2c", "momentum": 0.99, "beta_regularizer": null, "center": true}, "class_name": "BatchNormalization", "name": "bn2b_branch2c", "inbound_nodes": [[["res2b_branch2c", 0, 0, {}]]]}, {"config": {"name": "add_18", "trainable": false}, "class_name": "Add", "name": "add_18", "inbound_nodes": [[["bn2b_branch2c", 0, 0, {}], ["activation_53", 0, 0, {}]]]}, {"config": {"name": "activation_56", "activation": "relu", "trainable": false}, "class_name": "Activation", "name": "activation_56", "inbound_nodes": [[["add_18", 0, 0, {}]]]}, {"config": {"kernel_initializer": {"config": {"distribution": "normal", "scale": 2.0, "seed": null, "mode": "fan_in"}, "class_name": "VarianceScaling"}, "activation": "linear", "padding": "valid", "kernel_constraint": null, "filters": 64, "kernel_regularizer": null, "strides": [1, 1], "trainable": false, "bias_constraint": null, "activity_regularizer": null, "bias_initializer": {"config": {}, "class_name": "Zeros"}, "kernel_size": [1, 1], "name": "res2c_branch2a", "data_format": "channels_last", "bias_regularizer": null, "use_bias": true, "dilation_rate": [1, 1]}, "class_name": "Conv2D", "name": "res2c_branch2a", "inbound_nodes": [[["activation_56", 0, 0, {}]]]}, {"config": {"gamma_initializer": {"config": {}, "class_name": "Ones"}, "axis": 3, "beta_initializer": {"config": {}, "class_name": "Zeros"}, "moving_mean_initializer": {"config": {}, "class_name": "Zeros"}, "gamma_constraint": null, "gamma_regularizer": null, "trainable": false, "moving_variance_initializer": {"config": {}, "class_name": "Ones"}, "scale": true, "beta_constraint": null, "epsilon": 0.001, "name": "bn2c_branch2a", "momentum": 0.99, "beta_regularizer": null, "center": true}, "class_name": "BatchNormalization", "name": "bn2c_branch2a", "inbound_nodes": [[["res2c_branch2a", 0, 0, {}]]]}, {"config": {"name": "activation_57", "activation": "relu", "trainable": false}, "class_name": "Activation", "name": "activation_57", "inbound_nodes": [[["bn2c_branch2a", 0, 0, {}]]]}, {"config": {"kernel_initializer": {"config": {"distribution": "normal", "scale": 2.0, "seed": null, "mode": "fan_in"}, "class_name": "VarianceScaling"}, "activation": "linear", "padding": "same", "kernel_constraint": null, "filters": 64, "kernel_regularizer": null, "strides": [1, 1], "trainable": false, "bias_constraint": null, "activity_regularizer": null, "bias_initializer": {"config": {}, "class_name": "Zeros"}, "kernel_size": [3, 3], "name": "res2c_branch2b", "data_format": "channels_last", "bias_regularizer": null, "use_bias": true, "dilation_rate": [1, 1]}, "class_name": "Conv2D", "name": "res2c_branch2b", "inbound_nodes": [[["activation_57", 0, 0, {}]]]}, {"config": {"gamma_initializer": {"config": {}, "class_name": "Ones"}, "axis": 3, "beta_initializer": {"config": {}, "class_name": "Zeros"}, "moving_mean_initializer": {"config": {}, "class_name": "Zeros"}, "gamma_constraint": null, "gamma_regularizer": null, "trainable": false, "moving_variance_initializer": {"config": {}, "class_name": "Ones"}, "scale": true, "beta_constraint": null, "epsilon": 0.001, "name": "bn2c_branch2b", "momentum": 0.99, "beta_regularizer": null, "center": true}, "class_name": "BatchNormalization", "name": "bn2c_branch2b", "inbound_nodes": [[["res2c_branch2b", 0, 0, {}]]]}, {"config": {"name": "activation_58", "activation": "relu", "trainable": false}, "class_name": "Activation", "name": "activation_58", "inbound_nodes": [[["bn2c_branch2b", 0, 0, {}]]]}, {"config": {"kernel_initializer": {"config": {"distribution": "normal", "scale": 2.0, "seed": null, "mode": "fan_in"}, "class_name": "VarianceScaling"}, "activation": "linear", "padding": "valid", "kernel_constraint": null, "filters": 256, "kernel_regularizer": null, "strides": [1, 1], "trainable": false, "bias_constraint": null, "activity_regularizer": null, "bias_initializer": {"config": {}, "class_name": "Zeros"}, "kernel_size": [1, 1], "name": "res2c_branch2c", "data_format": "channels_last", "bias_regularizer": null, "use_bias": true, "dilation_rate": [1, 1]}, "class_name": "Conv2D", "name": "res2c_branch2c", "inbound_nodes": [[["activation_58", 0, 0, {}]]]}, {"config": {"gamma_initializer": {"config": {}, "class_name": "Ones"}, "axis": 3, "beta_initializer": {"config": {}, "class_name": "Zeros"}, "moving_mean_initializer": {"config": {}, "class_name": "Zeros"}, "gamma_constraint": null, "gamma_regularizer": null, "trainable": false, "moving_variance_initializer": {"config": {}, "class_name": "Ones"}, "scale": true, "beta_constraint": null, "epsilon": 0.001, "name": "bn2c_branch2c", "momentum": 0.99, "beta_regularizer": null, "center": true}, "class_name": "BatchNormalization", "name": "bn2c_branch2c", "inbound_nodes": [[["res2c_branch2c", 0, 0, {}]]]}, {"config": {"name": "add_19", "trainable": false}, "class_name": "Add", "name": "add_19", "inbound_nodes": [[["bn2c_branch2c", 0, 0, {}], ["activation_56", 0, 0, {}]]]}, {"config": {"name": "activation_59", "activation": "relu", "trainable": false}, "class_name": "Activation", "name": "activation_59", "inbound_nodes": [[["add_19", 0, 0, {}]]]}, {"config": {"kernel_initializer": {"config": {"distribution": "normal", "scale": 2.0, "seed": null, "mode": "fan_in"}, "class_name": "VarianceScaling"}, "activation": "linear", "padding": "valid", "kernel_constraint": null, "filters": 128, "kernel_regularizer": null, "strides": [2, 2], "trainable": false, "bias_constraint": null, "activity_regularizer": null, "bias_initializer": {"config": {}, "class_name": "Zeros"}, "kernel_size": [1, 1], "name": "res3a_branch2a", "data_format": "channels_last", "bias_regularizer": null, "use_bias": true, "dilation_rate": [1, 1]}, "class_name": "Conv2D", "name": "res3a_branch2a", "inbound_nodes": [[["activation_59", 0, 0, {}]]]}, {"config": {"gamma_initializer": {"config": {}, "class_name": "Ones"}, "axis": 3, "beta_initializer": {"config": {}, "class_name": "Zeros"}, "moving_mean_initializer": {"config": {}, "class_name": "Zeros"}, "gamma_constraint": null, "gamma_regularizer": null, "trainable": false, "moving_variance_initializer": {"config": {}, "class_name": "Ones"}, "scale": true, "beta_constraint": null, "epsilon": 0.001, "name": "bn3a_branch2a", "momentum": 0.99, "beta_regularizer": null, "center": true}, "class_name": "BatchNormalization", "name": "bn3a_branch2a", "inbound_nodes": [[["res3a_branch2a", 0, 0, {}]]]}, {"config": {"name": "activation_60", "activation": "relu", "trainable": false}, "class_name": "Activation", "name": "activation_60", "inbound_nodes": [[["bn3a_branch2a", 0, 0, {}]]]}, {"config": {"kernel_initializer": {"config": {"distribution": "normal", "scale": 2.0, "seed": null, "mode": "fan_in"}, "class_name": "VarianceScaling"}, "activation": "linear", "padding": "same", "kernel_constraint": null, "filters": 128, "kernel_regularizer": null, "strides": [1, 1], "trainable": false, "bias_constraint": null, "activity_regularizer": null, "bias_initializer": {"config": {}, "class_name": "Zeros"}, "kernel_size": [3, 3], "name": "res3a_branch2b", "data_format": "channels_last", "bias_regularizer": null, "use_bias": true, "dilation_rate": [1, 1]}, "class_name": "Conv2D", "name": "res3a_branch2b", "inbound_nodes": [[["activation_60", 0, 0, {}]]]}, {"config": {"gamma_initializer": {"config": {}, "class_name": "Ones"}, "axis": 3, "beta_initializer": {"config": {}, "class_name": "Zeros"}, "moving_mean_initializer": {"config": {}, "class_name": "Zeros"}, "gamma_constraint": null, "gamma_regularizer": null, "trainable": false, "moving_variance_initializer": {"config": {}, "class_name": "Ones"}, "scale": true, "beta_constraint": null, "epsilon": 0.001, "name": "bn3a_branch2b", "momentum": 0.99, "beta_regularizer": null, "center": true}, "class_name": "BatchNormalization", "name": "bn3a_branch2b", "inbound_nodes": [[["res3a_branch2b", 0, 0, {}]]]}, {"config": {"name": "activation_61", "activation": "relu", "trainable": false}, "class_name": "Activation", "name": "activation_61", "inbound_nodes": [[["bn3a_branch2b", 0, 0, {}]]]}, {"config": {"kernel_initializer": {"config": {"distribution": "normal", "scale": 2.0, "seed": null, "mode": "fan_in"}, "class_name": "VarianceScaling"}, "activation": "linear", "padding": "valid", "kernel_constraint": null, "filters": 512, "kernel_regularizer": null, "strides": [1, 1], "trainable": false, "bias_constraint": null, "activity_regularizer": null, "bias_initializer": {"config": {}, "class_name": "Zeros"}, "kernel_size": [1, 1], "name": "res3a_branch2c", "data_format": "channels_last", "bias_regularizer": null, "use_bias": true, "dilation_rate": [1, 1]}, "class_name": "Conv2D", "name": "res3a_branch2c", "inbound_nodes": [[["activation_61", 0, 0, {}]]]}, {"config": {"kernel_initializer": {"config": {"distribution": "normal", "scale": 2.0, "seed": null, "mode": "fan_in"}, "class_name": "VarianceScaling"}, "activation": "linear", "padding": "valid", "kernel_constraint": null, "filters": 512, "kernel_regularizer": null, "strides": [2, 2], "trainable": false, "bias_constraint": null, "activity_regularizer": null, "bias_initializer": {"config": {}, "class_name": "Zeros"}, "kernel_size": [1, 1], "name": "res3a_branch1", "data_format": "channels_last", "bias_regularizer": null, "use_bias": true, "dilation_rate": [1, 1]}, "class_name": "Conv2D", "name": "res3a_branch1", "inbound_nodes": [[["activation_59", 0, 0, {}]]]}, {"config": {"gamma_initializer": {"config": {}, "class_name": "Ones"}, "axis": 3, "beta_initializer": {"config": {}, "class_name": "Zeros"}, "moving_mean_initializer": {"config": {}, "class_name": "Zeros"}, "gamma_constraint": null, "gamma_regularizer": null, "trainable": false, "moving_variance_initializer": {"config": {}, "class_name": "Ones"}, "scale": true, "beta_constraint": null, "epsilon": 0.001, "name": "bn3a_branch2c", "momentum": 0.99, "beta_regularizer": null, "center": true}, "class_name": "BatchNormalization", "name": "bn3a_branch2c", "inbound_nodes": [[["res3a_branch2c", 0, 0, {}]]]}, {"config": {"gamma_initializer": {"config": {}, "class_name": "Ones"}, "axis": 3, "beta_initializer": {"config": {}, "class_name": "Zeros"}, "moving_mean_initializer": {"config": {}, "class_name": "Zeros"}, "gamma_constraint": null, "gamma_regularizer": null, "trainable": false, "moving_variance_initializer": {"config": {}, "class_name": "Ones"}, "scale": true, "beta_constraint": null, "epsilon": 0.001, "name": "bn3a_branch1", "momentum": 0.99, "beta_regularizer": null, "center": true}, "class_name": "BatchNormalization", "name": "bn3a_branch1", "inbound_nodes": [[["res3a_branch1", 0, 0, {}]]]}, {"config": {"name": "add_20", "trainable": false}, "class_name": "Add", "name": "add_20", "inbound_nodes": [[["bn3a_branch2c", 0, 0, {}], ["bn3a_branch1", 0, 0, {}]]]}, {"config": {"name": "activation_62", "activation": "relu", "trainable": false}, "class_name": "Activation", "name": "activation_62", "inbound_nodes": [[["add_20", 0, 0, {}]]]}, {"config": {"kernel_initializer": {"config": {"distribution": "normal", "scale": 2.0, "seed": null, "mode": "fan_in"}, "class_name": "VarianceScaling"}, "activation": "linear", "padding": "valid", "kernel_constraint": null, "filters": 128, "kernel_regularizer": null, "strides": [1, 1], "trainable": false, "bias_constraint": null, "activity_regularizer": null, "bias_initializer": {"config": {}, "class_name": "Zeros"}, "kernel_size": [1, 1], "name": "res3b_branch2a", "data_format": "channels_last", "bias_regularizer": null, "use_bias": true, "dilation_rate": [1, 1]}, "class_name": "Conv2D", "name": "res3b_branch2a", "inbound_nodes": [[["activation_62", 0, 0, {}]]]}, {"config": {"gamma_initializer": {"config": {}, "class_name": "Ones"}, "axis": 3, "beta_initializer": {"config": {}, "class_name": "Zeros"}, "moving_mean_initializer": {"config": {}, "class_name": "Zeros"}, "gamma_constraint": null, "gamma_regularizer": null, "trainable": false, "moving_variance_initializer": {"config": {}, "class_name": "Ones"}, "scale": true, "beta_constraint": null, "epsilon": 0.001, "name": "bn3b_branch2a", "momentum": 0.99, "beta_regularizer": null, "center": true}, "class_name": "BatchNormalization", "name": "bn3b_branch2a", "inbound_nodes": [[["res3b_branch2a", 0, 0, {}]]]}, {"config": {"name": "activation_63", "activation": "relu", "trainable": false}, "class_name": "Activation", "name": "activation_63", "inbound_nodes": [[["bn3b_branch2a", 0, 0, {}]]]}, {"config": {"kernel_initializer": {"config": {"distribution": "normal", "scale": 2.0, "seed": null, "mode": "fan_in"}, "class_name": "VarianceScaling"}, "activation": "linear", "padding": "same", "kernel_constraint": null, "filters": 128, "kernel_regularizer": null, "strides": [1, 1], "trainable": false, "bias_constraint": null, "activity_regularizer": null, "bias_initializer": {"config": {}, "class_name": "Zeros"}, "kernel_size": [3, 3], "name": "res3b_branch2b", "data_format": "channels_last", "bias_regularizer": null, "use_bias": true, "dilation_rate": [1, 1]}, "class_name": "Conv2D", "name": "res3b_branch2b", "inbound_nodes": [[["activation_63", 0, 0, {}]]]}, {"config": {"gamma_initializer": {"config": {}, "class_name": "Ones"}, "axis": 3, "beta_initializer": {"config": {}, "class_name": "Zeros"}, "moving_mean_initializer": {"config": {}, "class_name": "Zeros"}, "gamma_constraint": null, "gamma_regularizer": null, "trainable": false, "moving_variance_initializer": {"config": {}, "class_name": "Ones"}, "scale": true, "beta_constraint": null, "epsilon": 0.001, "name": "bn3b_branch2b", "momentum": 0.99, "beta_regularizer": null, "center": true}, "class_name": "BatchNormalization", "name": "bn3b_branch2b", "inbound_nodes": [[["res3b_branch2b", 0, 0, {}]]]}, {"config": {"name": "activation_64", "activation": "relu", "trainable": false}, "class_name": "Activation", "name": "activation_64", "inbound_nodes": [[["bn3b_branch2b", 0, 0, {}]]]}, {"config": {"kernel_initializer": {"config": {"distribution": "normal", "scale": 2.0, "seed": null, "mode": "fan_in"}, "class_name": "VarianceScaling"}, "activation": "linear", "padding": "valid", "kernel_constraint": null, "filters": 512, "kernel_regularizer": null, "strides": [1, 1], "trainable": false, "bias_constraint": null, "activity_regularizer": null, "bias_initializer": {"config": {}, "class_name": "Zeros"}, "kernel_size": [1, 1], "name": "res3b_branch2c", "data_format": "channels_last", "bias_regularizer": null, "use_bias": true, "dilation_rate": [1, 1]}, "class_name": "Conv2D", "name": "res3b_branch2c", "inbound_nodes": [[["activation_64", 0, 0, {}]]]}, {"config": {"gamma_initializer": {"config": {}, "class_name": "Ones"}, "axis": 3, "beta_initializer": {"config": {}, "class_name": "Zeros"}, "moving_mean_initializer": {"config": {}, "class_name": "Zeros"}, "gamma_constraint": null, "gamma_regularizer": null, "trainable": false, "moving_variance_initializer": {"config": {}, "class_name": "Ones"}, "scale": true, "beta_constraint": null, "epsilon": 0.001, "name": "bn3b_branch2c", "momentum": 0.99, "beta_regularizer": null, "center": true}, "class_name": "BatchNormalization", "name": "bn3b_branch2c", "inbound_nodes": [[["res3b_branch2c", 0, 0, {}]]]}, {"config": {"name": "add_21", "trainable": false}, "class_name": "Add", "name": "add_21", "inbound_nodes": [[["bn3b_branch2c", 0, 0, {}], ["activation_62", 0, 0, {}]]]}, {"config": {"name": "activation_65", "activation": "relu", "trainable": false}, "class_name": "Activation", "name": "activation_65", "inbound_nodes": [[["add_21", 0, 0, {}]]]}, {"config": {"kernel_initializer": {"config": {"distribution": "normal", "scale": 2.0, "seed": null, "mode": "fan_in"}, "class_name": "VarianceScaling"}, "activation": "linear", "padding": "valid", "kernel_constraint": null, "filters": 128, "kernel_regularizer": null, "strides": [1, 1], "trainable": false, "bias_constraint": null, "activity_regularizer": null, "bias_initializer": {"config": {}, "class_name": "Zeros"}, "kernel_size": [1, 1], "name": "res3c_branch2a", "data_format": "channels_last", "bias_regularizer": null, "use_bias": true, "dilation_rate": [1, 1]}, "class_name": "Conv2D", "name": "res3c_branch2a", "inbound_nodes": [[["activation_65", 0, 0, {}]]]}, {"config": {"gamma_initializer": {"config": {}, "class_name": "Ones"}, "axis": 3, "beta_initializer": {"config": {}, "class_name": "Zeros"}, "moving_mean_initializer": {"config": {}, "class_name": "Zeros"}, "gamma_constraint": null, "gamma_regularizer": null, "trainable": false, "moving_variance_initializer": {"config": {}, "class_name": "Ones"}, "scale": true, "beta_constraint": null, "epsilon": 0.001, "name": "bn3c_branch2a", "momentum": 0.99, "beta_regularizer": null, "center": true}, "class_name": "BatchNormalization", "name": "bn3c_branch2a", "inbound_nodes": [[["res3c_branch2a", 0, 0, {}]]]}, {"config": {"name": "activation_66", "activation": "relu", "trainable": false}, "class_name": "Activation", "name": "activation_66", "inbound_nodes": [[["bn3c_branch2a", 0, 0, {}]]]}, {"config": {"kernel_initializer": {"config": {"distribution": "normal", "scale": 2.0, "seed": null, "mode": "fan_in"}, "class_name": "VarianceScaling"}, "activation": "linear", "padding": "same", "kernel_constraint": null, "filters": 128, "kernel_regularizer": null, "strides": [1, 1], "trainable": false, "bias_constraint": null, "activity_regularizer": null, "bias_initializer": {"config": {}, "class_name": "Zeros"}, "kernel_size": [3, 3], "name": "res3c_branch2b", "data_format": "channels_last", "bias_regularizer": null, "use_bias": true, "dilation_rate": [1, 1]}, "class_name": "Conv2D", "name": "res3c_branch2b", "inbound_nodes": [[["activation_66", 0, 0, {}]]]}, {"config": {"gamma_initializer": {"config": {}, "class_name": "Ones"}, "axis": 3, "beta_initializer": {"config": {}, "class_name": "Zeros"}, "moving_mean_initializer": {"config": {}, "class_name": "Zeros"}, "gamma_constraint": null, "gamma_regularizer": null, "trainable": false, "moving_variance_initializer": {"config": {}, "class_name": "Ones"}, "scale": true, "beta_constraint": null, "epsilon": 0.001, "name": "bn3c_branch2b", "momentum": 0.99, "beta_regularizer": null, "center": true}, "class_name": "BatchNormalization", "name": "bn3c_branch2b", "inbound_nodes": [[["res3c_branch2b", 0, 0, {}]]]}, {"config": {"name": "activation_67", "activation": "relu", "trainable": false}, "class_name": "Activation", "name": "activation_67", "inbound_nodes": [[["bn3c_branch2b", 0, 0, {}]]]}, {"config": {"kernel_initializer": {"config": {"distribution": "normal", "scale": 2.0, "seed": null, "mode": "fan_in"}, "class_name": "VarianceScaling"}, "activation": "linear", "padding": "valid", "kernel_constraint": null, "filters": 512, "kernel_regularizer": null, "strides": [1, 1], "trainable": false, "bias_constraint": null, "activity_regularizer": null, "bias_initializer": {"config": {}, "class_name": "Zeros"}, "kernel_size": [1, 1], "name": "res3c_branch2c", "data_format": "channels_last", "bias_regularizer": null, "use_bias": true, "dilation_rate": [1, 1]}, "class_name": "Conv2D", "name": "res3c_branch2c", "inbound_nodes": [[["activation_67", 0, 0, {}]]]}, {"config": {"gamma_initializer": {"config": {}, "class_name": "Ones"}, "axis": 3, "beta_initializer": {"config": {}, "class_name": "Zeros"}, "moving_mean_initializer": {"config": {}, "class_name": "Zeros"}, "gamma_constraint": null, "gamma_regularizer": null, "trainable": false, "moving_variance_initializer": {"config": {}, "class_name": "Ones"}, "scale": true, "beta_constraint": null, "epsilon": 0.001, "name": "bn3c_branch2c", "momentum": 0.99, "beta_regularizer": null, "center": true}, "class_name": "BatchNormalization", "name": "bn3c_branch2c", "inbound_nodes": [[["res3c_branch2c", 0, 0, {}]]]}, {"config": {"name": "add_22", "trainable": false}, "class_name": "Add", "name": "add_22", "inbound_nodes": [[["bn3c_branch2c", 0, 0, {}], ["activation_65", 0, 0, {}]]]}, {"config": {"name": "activation_68", "activation": "relu", "trainable": false}, "class_name": "Activation", "name": "activation_68", "inbound_nodes": [[["add_22", 0, 0, {}]]]}, {"config": {"kernel_initializer": {"config": {"distribution": "normal", "scale": 2.0, "seed": null, "mode": "fan_in"}, "class_name": "VarianceScaling"}, "activation": "linear", "padding": "valid", "kernel_constraint": null, "filters": 128, "kernel_regularizer": null, "strides": [1, 1], "trainable": false, "bias_constraint": null, "activity_regularizer": null, "bias_initializer": {"config": {}, "class_name": "Zeros"}, "kernel_size": [1, 1], "name": "res3d_branch2a", "data_format": "channels_last", "bias_regularizer": null, "use_bias": true, "dilation_rate": [1, 1]}, "class_name": "Conv2D", "name": "res3d_branch2a", "inbound_nodes": [[["activation_68", 0, 0, {}]]]}, {"config": {"gamma_initializer": {"config": {}, "class_name": "Ones"}, "axis": 3, "beta_initializer": {"config": {}, "class_name": "Zeros"}, "moving_mean_initializer": {"config": {}, "class_name": "Zeros"}, "gamma_constraint": null, "gamma_regularizer": null, "trainable": false, "moving_variance_initializer": {"config": {}, "class_name": "Ones"}, "scale": true, "beta_constraint": null, "epsilon": 0.001, "name": "bn3d_branch2a", "momentum": 0.99, "beta_regularizer": null, "center": true}, "class_name": "BatchNormalization", "name": "bn3d_branch2a", "inbound_nodes": [[["res3d_branch2a", 0, 0, {}]]]}, {"config": {"name": "activation_69", "activation": "relu", "trainable": false}, "class_name": "Activation", "name": "activation_69", "inbound_nodes": [[["bn3d_branch2a", 0, 0, {}]]]}, {"config": {"kernel_initializer": {"config": {"distribution": "normal", "scale": 2.0, "seed": null, "mode": "fan_in"}, "class_name": "VarianceScaling"}, "activation": "linear", "padding": "same", "kernel_constraint": null, "filters": 128, "kernel_regularizer": null, "strides": [1, 1], "trainable": false, "bias_constraint": null, "activity_regularizer": null, "bias_initializer": {"config": {}, "class_name": "Zeros"}, "kernel_size": [3, 3], "name": "res3d_branch2b", "data_format": "channels_last", "bias_regularizer": null, "use_bias": true, "dilation_rate": [1, 1]}, "class_name": "Conv2D", "name": "res3d_branch2b", "inbound_nodes": [[["activation_69", 0, 0, {}]]]}, {"config": {"gamma_initializer": {"config": {}, "class_name": "Ones"}, "axis": 3, "beta_initializer": {"config": {}, "class_name": "Zeros"}, "moving_mean_initializer": {"config": {}, "class_name": "Zeros"}, "gamma_constraint": null, "gamma_regularizer": null, "trainable": false, "moving_variance_initializer": {"config": {}, "class_name": "Ones"}, "scale": true, "beta_constraint": null, "epsilon": 0.001, "name": "bn3d_branch2b", "momentum": 0.99, "beta_regularizer": null, "center": true}, "class_name": "BatchNormalization", "name": "bn3d_branch2b", "inbound_nodes": [[["res3d_branch2b", 0, 0, {}]]]}, {"config": {"name": "activation_70", "activation": "relu", "trainable": false}, "class_name": "Activation", "name": "activation_70", "inbound_nodes": [[["bn3d_branch2b", 0, 0, {}]]]}, {"config": {"kernel_initializer": {"config": {"distribution": "normal", "scale": 2.0, "seed": null, "mode": "fan_in"}, "class_name": "VarianceScaling"}, "activation": "linear", "padding": "valid", "kernel_constraint": null, "filters": 512, "kernel_regularizer": null, "strides": [1, 1], "trainable": false, "bias_constraint": null, "activity_regularizer": null, "bias_initializer": {"config": {}, "class_name": "Zeros"}, "kernel_size": [1, 1], "name": "res3d_branch2c", "data_format": "channels_last", "bias_regularizer": null, "use_bias": true, "dilation_rate": [1, 1]}, "class_name": "Conv2D", "name": "res3d_branch2c", "inbound_nodes": [[["activation_70", 0, 0, {}]]]}, {"config": {"gamma_initializer": {"config": {}, "class_name": "Ones"}, "axis": 3, "beta_initializer": {"config": {}, "class_name": "Zeros"}, "moving_mean_initializer": {"config": {}, "class_name": "Zeros"}, "gamma_constraint": null, "gamma_regularizer": null, "trainable": false, "moving_variance_initializer": {"config": {}, "class_name": "Ones"}, "scale": true, "beta_constraint": null, "epsilon": 0.001, "name": "bn3d_branch2c", "momentum": 0.99, "beta_regularizer": null, "center": true}, "class_name": "BatchNormalization", "name": "bn3d_branch2c", "inbound_nodes": [[["res3d_branch2c", 0, 0, {}]]]}, {"config": {"name": "add_23", "trainable": false}, "class_name": "Add", "name": "add_23", "inbound_nodes": [[["bn3d_branch2c", 0, 0, {}], ["activation_68", 0, 0, {}]]]}, {"config": {"name": "activation_71", "activation": "relu", "trainable": false}, "class_name": "Activation", "name": "activation_71", "inbound_nodes": [[["add_23", 0, 0, {}]]]}, {"config": {"kernel_initializer": {"config": {"distribution": "normal", "scale": 2.0, "seed": null, "mode": "fan_in"}, "class_name": "VarianceScaling"}, "activation": "linear", "padding": "valid", "kernel_constraint": null, "filters": 256, "kernel_regularizer": null, "strides": [2, 2], "trainable": false, "bias_constraint": null, "activity_regularizer": null, "bias_initializer": {"config": {}, "class_name": "Zeros"}, "kernel_size": [1, 1], "name": "res4a_branch2a", "data_format": "channels_last", "bias_regularizer": null, "use_bias": true, "dilation_rate": [1, 1]}, "class_name": "Conv2D", "name": "res4a_branch2a", "inbound_nodes": [[["activation_71", 0, 0, {}]]]}, {"config": {"gamma_initializer": {"config": {}, "class_name": "Ones"}, "axis": 3, "beta_initializer": {"config": {}, "class_name": "Zeros"}, "moving_mean_initializer": {"config": {}, "class_name": "Zeros"}, "gamma_constraint": null, "gamma_regularizer": null, "trainable": false, "moving_variance_initializer": {"config": {}, "class_name": "Ones"}, "scale": true, "beta_constraint": null, "epsilon": 0.001, "name": "bn4a_branch2a", "momentum": 0.99, "beta_regularizer": null, "center": true}, "class_name": "BatchNormalization", "name": "bn4a_branch2a", "inbound_nodes": [[["res4a_branch2a", 0, 0, {}]]]}, {"config": {"name": "activation_72", "activation": "relu", "trainable": false}, "class_name": "Activation", "name": "activation_72", "inbound_nodes": [[["bn4a_branch2a", 0, 0, {}]]]}, {"config": {"kernel_initializer": {"config": {"distribution": "normal", "scale": 2.0, "seed": null, "mode": "fan_in"}, "class_name": "VarianceScaling"}, "activation": "linear", "padding": "same", "kernel_constraint": null, "filters": 256, "kernel_regularizer": null, "strides": [1, 1], "trainable": false, "bias_constraint": null, "activity_regularizer": null, "bias_initializer": {"config": {}, "class_name": "Zeros"}, "kernel_size": [3, 3], "name": "res4a_branch2b", "data_format": "channels_last", "bias_regularizer": null, "use_bias": true, "dilation_rate": [1, 1]}, "class_name": "Conv2D", "name": "res4a_branch2b", "inbound_nodes": [[["activation_72", 0, 0, {}]]]}, {"config": {"gamma_initializer": {"config": {}, "class_name": "Ones"}, "axis": 3, "beta_initializer": {"config": {}, "class_name": "Zeros"}, "moving_mean_initializer": {"config": {}, "class_name": "Zeros"}, "gamma_constraint": null, "gamma_regularizer": null, "trainable": false, "moving_variance_initializer": {"config": {}, "class_name": "Ones"}, "scale": true, "beta_constraint": null, "epsilon": 0.001, "name": "bn4a_branch2b", "momentum": 0.99, "beta_regularizer": null, "center": true}, "class_name": "BatchNormalization", "name": "bn4a_branch2b", "inbound_nodes": [[["res4a_branch2b", 0, 0, {}]]]}, {"config": {"name": "activation_73", "activation": "relu", "trainable": false}, "class_name": "Activation", "name": "activation_73", "inbound_nodes": [[["bn4a_branch2b", 0, 0, {}]]]}, {"config": {"kernel_initializer": {"config": {"distribution": "normal", "scale": 2.0, "seed": null, "mode": "fan_in"}, "class_name": "VarianceScaling"}, "activation": "linear", "padding": "valid", "kernel_constraint": null, "filters": 1024, "kernel_regularizer": null, "strides": [1, 1], "trainable": false, "bias_constraint": null, "activity_regularizer": null, "bias_initializer": {"config": {}, "class_name": "Zeros"}, "kernel_size": [1, 1], "name": "res4a_branch2c", "data_format": "channels_last", "bias_regularizer": null, "use_bias": true, "dilation_rate": [1, 1]}, "class_name": "Conv2D", "name": "res4a_branch2c", "inbound_nodes": [[["activation_73", 0, 0, {}]]]}, {"config": {"kernel_initializer": {"config": {"distribution": "normal", "scale": 2.0, "seed": null, "mode": "fan_in"}, "class_name": "VarianceScaling"}, "activation": "linear", "padding": "valid", "kernel_constraint": null, "filters": 1024, "kernel_regularizer": null, "strides": [2, 2], "trainable": false, "bias_constraint": null, "activity_regularizer": null, "bias_initializer": {"config": {}, "class_name": "Zeros"}, "kernel_size": [1, 1], "name": "res4a_branch1", "data_format": "channels_last", "bias_regularizer": null, "use_bias": true, "dilation_rate": [1, 1]}, "class_name": "Conv2D", "name": "res4a_branch1", "inbound_nodes": [[["activation_71", 0, 0, {}]]]}, {"config": {"gamma_initializer": {"config": {}, "class_name": "Ones"}, "axis": 3, "beta_initializer": {"config": {}, "class_name": "Zeros"}, "moving_mean_initializer": {"config": {}, "class_name": "Zeros"}, "gamma_constraint": null, "gamma_regularizer": null, "trainable": false, "moving_variance_initializer": {"config": {}, "class_name": "Ones"}, "scale": true, "beta_constraint": null, "epsilon": 0.001, "name": "bn4a_branch2c", "momentum": 0.99, "beta_regularizer": null, "center": true}, "class_name": "BatchNormalization", "name": "bn4a_branch2c", "inbound_nodes": [[["res4a_branch2c", 0, 0, {}]]]}, {"config": {"gamma_initializer": {"config": {}, "class_name": "Ones"}, "axis": 3, "beta_initializer": {"config": {}, "class_name": "Zeros"}, "moving_mean_initializer": {"config": {}, "class_name": "Zeros"}, "gamma_constraint": null, "gamma_regularizer": null, "trainable": false, "moving_variance_initializer": {"config": {}, "class_name": "Ones"}, "scale": true, "beta_constraint": null, "epsilon": 0.001, "name": "bn4a_branch1", "momentum": 0.99, "beta_regularizer": null, "center": true}, "class_name": "BatchNormalization", "name": "bn4a_branch1", "inbound_nodes": [[["res4a_branch1", 0, 0, {}]]]}, {"config": {"name": "add_24", "trainable": false}, "class_name": "Add", "name": "add_24", "inbound_nodes": [[["bn4a_branch2c", 0, 0, {}], ["bn4a_branch1", 0, 0, {}]]]}, {"config": {"name": "activation_74", "activation": "relu", "trainable": false}, "class_name": "Activation", "name": "activation_74", "inbound_nodes": [[["add_24", 0, 0, {}]]]}, {"config": {"kernel_initializer": {"config": {"distribution": "normal", "scale": 2.0, "seed": null, "mode": "fan_in"}, "class_name": "VarianceScaling"}, "activation": "linear", "padding": "valid", "kernel_constraint": null, "filters": 256, "kernel_regularizer": null, "strides": [1, 1], "trainable": false, "bias_constraint": null, "activity_regularizer": null, "bias_initializer": {"config": {}, "class_name": "Zeros"}, "kernel_size": [1, 1], "name": "res4b_branch2a", "data_format": "channels_last", "bias_regularizer": null, "use_bias": true, "dilation_rate": [1, 1]}, "class_name": "Conv2D", "name": "res4b_branch2a", "inbound_nodes": [[["activation_74", 0, 0, {}]]]}, {"config": {"gamma_initializer": {"config": {}, "class_name": "Ones"}, "axis": 3, "beta_initializer": {"config": {}, "class_name": "Zeros"}, "moving_mean_initializer": {"config": {}, "class_name": "Zeros"}, "gamma_constraint": null, "gamma_regularizer": null, "trainable": false, "moving_variance_initializer": {"config": {}, "class_name": "Ones"}, "scale": true, "beta_constraint": null, "epsilon": 0.001, "name": "bn4b_branch2a", "momentum": 0.99, "beta_regularizer": null, "center": true}, "class_name": "BatchNormalization", "name": "bn4b_branch2a", "inbound_nodes": [[["res4b_branch2a", 0, 0, {}]]]}, {"config": {"name": "activation_75", "activation": "relu", "trainable": false}, "class_name": "Activation", "name": "activation_75", "inbound_nodes": [[["bn4b_branch2a", 0, 0, {}]]]}, {"config": {"kernel_initializer": {"config": {"distribution": "normal", "scale": 2.0, "seed": null, "mode": "fan_in"}, "class_name": "VarianceScaling"}, "activation": "linear", "padding": "same", "kernel_constraint": null, "filters": 256, "kernel_regularizer": null, "strides": [1, 1], "trainable": false, "bias_constraint": null, "activity_regularizer": null, "bias_initializer": {"config": {}, "class_name": "Zeros"}, "kernel_size": [3, 3], "name": "res4b_branch2b", "data_format": "channels_last", "bias_regularizer": null, "use_bias": true, "dilation_rate": [1, 1]}, "class_name": "Conv2D", "name": "res4b_branch2b", "inbound_nodes": [[["activation_75", 0, 0, {}]]]}, {"config": {"gamma_initializer": {"config": {}, "class_name": "Ones"}, "axis": 3, "beta_initializer": {"config": {}, "class_name": "Zeros"}, "moving_mean_initializer": {"config": {}, "class_name": "Zeros"}, "gamma_constraint": null, "gamma_regularizer": null, "trainable": false, "moving_variance_initializer": {"config": {}, "class_name": "Ones"}, "scale": true, "beta_constraint": null, "epsilon": 0.001, "name": "bn4b_branch2b", "momentum": 0.99, "beta_regularizer": null, "center": true}, "class_name": "BatchNormalization", "name": "bn4b_branch2b", "inbound_nodes": [[["res4b_branch2b", 0, 0, {}]]]}, {"config": {"name": "activation_76", "activation": "relu", "trainable": false}, "class_name": "Activation", "name": "activation_76", "inbound_nodes": [[["bn4b_branch2b", 0, 0, {}]]]}, {"config": {"kernel_initializer": {"config": {"distribution": "normal", "scale": 2.0, "seed": null, "mode": "fan_in"}, "class_name": "VarianceScaling"}, "activation": "linear", "padding": "valid", "kernel_constraint": null, "filters": 1024, "kernel_regularizer": null, "strides": [1, 1], "trainable": false, "bias_constraint": null, "activity_regularizer": null, "bias_initializer": {"config": {}, "class_name": "Zeros"}, "kernel_size": [1, 1], "name": "res4b_branch2c", "data_format": "channels_last", "bias_regularizer": null, "use_bias": true, "dilation_rate": [1, 1]}, "class_name": "Conv2D", "name": "res4b_branch2c", "inbound_nodes": [[["activation_76", 0, 0, {}]]]}, {"config": {"gamma_initializer": {"config": {}, "class_name": "Ones"}, "axis": 3, "beta_initializer": {"config": {}, "class_name": "Zeros"}, "moving_mean_initializer": {"config": {}, "class_name": "Zeros"}, "gamma_constraint": null, "gamma_regularizer": null, "trainable": false, "moving_variance_initializer": {"config": {}, "class_name": "Ones"}, "scale": true, "beta_constraint": null, "epsilon": 0.001, "name": "bn4b_branch2c", "momentum": 0.99, "beta_regularizer": null, "center": true}, "class_name": "BatchNormalization", "name": "bn4b_branch2c", "inbound_nodes": [[["res4b_branch2c", 0, 0, {}]]]}, {"config": {"name": "add_25", "trainable": false}, "class_name": "Add", "name": "add_25", "inbound_nodes": [[["bn4b_branch2c", 0, 0, {}], ["activation_74", 0, 0, {}]]]}, {"config": {"name": "activation_77", "activation": "relu", "trainable": false}, "class_name": "Activation", "name": "activation_77", "inbound_nodes": [[["add_25", 0, 0, {}]]]}, {"config": {"kernel_initializer": {"config": {"distribution": "normal", "scale": 2.0, "seed": null, "mode": "fan_in"}, "class_name": "VarianceScaling"}, "activation": "linear", "padding": "valid", "kernel_constraint": null, "filters": 256, "kernel_regularizer": null, "strides": [1, 1], "trainable": false, "bias_constraint": null, "activity_regularizer": null, "bias_initializer": {"config": {}, "class_name": "Zeros"}, "kernel_size": [1, 1], "name": "res4c_branch2a", "data_format": "channels_last", "bias_regularizer": null, "use_bias": true, "dilation_rate": [1, 1]}, "class_name": "Conv2D", "name": "res4c_branch2a", "inbound_nodes": [[["activation_77", 0, 0, {}]]]}, {"config": {"gamma_initializer": {"config": {}, "class_name": "Ones"}, "axis": 3, "beta_initializer": {"config": {}, "class_name": "Zeros"}, "moving_mean_initializer": {"config": {}, "class_name": "Zeros"}, "gamma_constraint": null, "gamma_regularizer": null, "trainable": false, "moving_variance_initializer": {"config": {}, "class_name": "Ones"}, "scale": true, "beta_constraint": null, "epsilon": 0.001, "name": "bn4c_branch2a", "momentum": 0.99, "beta_regularizer": null, "center": true}, "class_name": "BatchNormalization", "name": "bn4c_branch2a", "inbound_nodes": [[["res4c_branch2a", 0, 0, {}]]]}, {"config": {"name": "activation_78", "activation": "relu", "trainable": false}, "class_name": "Activation", "name": "activation_78", "inbound_nodes": [[["bn4c_branch2a", 0, 0, {}]]]}, {"config": {"kernel_initializer": {"config": {"distribution": "normal", "scale": 2.0, "seed": null, "mode": "fan_in"}, "class_name": "VarianceScaling"}, "activation": "linear", "padding": "same", "kernel_constraint": null, "filters": 256, "kernel_regularizer": null, "strides": [1, 1], "trainable": false, "bias_constraint": null, "activity_regularizer": null, "bias_initializer": {"config": {}, "class_name": "Zeros"}, "kernel_size": [3, 3], "name": "res4c_branch2b", "data_format": "channels_last", "bias_regularizer": null, "use_bias": true, "dilation_rate": [1, 1]}, "class_name": "Conv2D", "name": "res4c_branch2b", "inbound_nodes": [[["activation_78", 0, 0, {}]]]}, {"config": {"gamma_initializer": {"config": {}, "class_name": "Ones"}, "axis": 3, "beta_initializer": {"config": {}, "class_name": "Zeros"}, "moving_mean_initializer": {"config": {}, "class_name": "Zeros"}, "gamma_constraint": null, "gamma_regularizer": null, "trainable": false, "moving_variance_initializer": {"config": {}, "class_name": "Ones"}, "scale": true, "beta_constraint": null, "epsilon": 0.001, "name": "bn4c_branch2b", "momentum": 0.99, "beta_regularizer": null, "center": true}, "class_name": "BatchNormalization", "name": "bn4c_branch2b", "inbound_nodes": [[["res4c_branch2b", 0, 0, {}]]]}, {"config": {"name": "activation_79", "activation": "relu", "trainable": false}, "class_name": "Activation", "name": "activation_79", "inbound_nodes": [[["bn4c_branch2b", 0, 0, {}]]]}, {"config": {"kernel_initializer": {"config": {"distribution": "normal", "scale": 2.0, "seed": null, "mode": "fan_in"}, "class_name": "VarianceScaling"}, "activation": "linear", "padding": "valid", "kernel_constraint": null, "filters": 1024, "kernel_regularizer": null, "strides": [1, 1], "trainable": false, "bias_constraint": null, "activity_regularizer": null, "bias_initializer": {"config": {}, "class_name": "Zeros"}, "kernel_size": [1, 1], "name": "res4c_branch2c", "data_format": "channels_last", "bias_regularizer": null, "use_bias": true, "dilation_rate": [1, 1]}, "class_name": "Conv2D", "name": "res4c_branch2c", "inbound_nodes": [[["activation_79", 0, 0, {}]]]}, {"config": {"gamma_initializer": {"config": {}, "class_name": "Ones"}, "axis": 3, "beta_initializer": {"config": {}, "class_name": "Zeros"}, "moving_mean_initializer": {"config": {}, "class_name": "Zeros"}, "gamma_constraint": null, "gamma_regularizer": null, "trainable": false, "moving_variance_initializer": {"config": {}, "class_name": "Ones"}, "scale": true, "beta_constraint": null, "epsilon": 0.001, "name": "bn4c_branch2c", "momentum": 0.99, "beta_regularizer": null, "center": true}, "class_name": "BatchNormalization", "name": "bn4c_branch2c", "inbound_nodes": [[["res4c_branch2c", 0, 0, {}]]]}, {"config": {"name": "add_26", "trainable": false}, "class_name": "Add", "name": "add_26", "inbound_nodes": [[["bn4c_branch2c", 0, 0, {}], ["activation_77", 0, 0, {}]]]}, {"config": {"name": "activation_80", "activation": "relu", "trainable": false}, "class_name": "Activation", "name": "activation_80", "inbound_nodes": [[["add_26", 0, 0, {}]]]}, {"config": {"kernel_initializer": {"config": {"distribution": "normal", "scale": 2.0, "seed": null, "mode": "fan_in"}, "class_name": "VarianceScaling"}, "activation": "linear", "padding": "valid", "kernel_constraint": null, "filters": 256, "kernel_regularizer": null, "strides": [1, 1], "trainable": false, "bias_constraint": null, "activity_regularizer": null, "bias_initializer": {"config": {}, "class_name": "Zeros"}, "kernel_size": [1, 1], "name": "res4d_branch2a", "data_format": "channels_last", "bias_regularizer": null, "use_bias": true, "dilation_rate": [1, 1]}, "class_name": "Conv2D", "name": "res4d_branch2a", "inbound_nodes": [[["activation_80", 0, 0, {}]]]}, {"config": {"gamma_initializer": {"config": {}, "class_name": "Ones"}, "axis": 3, "beta_initializer": {"config": {}, "class_name": "Zeros"}, "moving_mean_initializer": {"config": {}, "class_name": "Zeros"}, "gamma_constraint": null, "gamma_regularizer": null, "trainable": false, "moving_variance_initializer": {"config": {}, "class_name": "Ones"}, "scale": true, "beta_constraint": null, "epsilon": 0.001, "name": "bn4d_branch2a", "momentum": 0.99, "beta_regularizer": null, "center": true}, "class_name": "BatchNormalization", "name": "bn4d_branch2a", "inbound_nodes": [[["res4d_branch2a", 0, 0, {}]]]}, {"config": {"name": "activation_81", "activation": "relu", "trainable": false}, "class_name": "Activation", "name": "activation_81", "inbound_nodes": [[["bn4d_branch2a", 0, 0, {}]]]}, {"config": {"kernel_initializer": {"config": {"distribution": "normal", "scale": 2.0, "seed": null, "mode": "fan_in"}, "class_name": "VarianceScaling"}, "activation": "linear", "padding": "same", "kernel_constraint": null, "filters": 256, "kernel_regularizer": null, "strides": [1, 1], "trainable": false, "bias_constraint": null, "activity_regularizer": null, "bias_initializer": {"config": {}, "class_name": "Zeros"}, "kernel_size": [3, 3], "name": "res4d_branch2b", "data_format": "channels_last", "bias_regularizer": null, "use_bias": true, "dilation_rate": [1, 1]}, "class_name": "Conv2D", "name": "res4d_branch2b", "inbound_nodes": [[["activation_81", 0, 0, {}]]]}, {"config": {"gamma_initializer": {"config": {}, "class_name": "Ones"}, "axis": 3, "beta_initializer": {"config": {}, "class_name": "Zeros"}, "moving_mean_initializer": {"config": {}, "class_name": "Zeros"}, "gamma_constraint": null, "gamma_regularizer": null, "trainable": false, "moving_variance_initializer": {"config": {}, "class_name": "Ones"}, "scale": true, "beta_constraint": null, "epsilon": 0.001, "name": "bn4d_branch2b", "momentum": 0.99, "beta_regularizer": null, "center": true}, "class_name": "BatchNormalization", "name": "bn4d_branch2b", "inbound_nodes": [[["res4d_branch2b", 0, 0, {}]]]}, {"config": {"name": "activation_82", "activation": "relu", "trainable": false}, "class_name": "Activation", "name": "activation_82", "inbound_nodes": [[["bn4d_branch2b", 0, 0, {}]]]}, {"config": {"kernel_initializer": {"config": {"distribution": "normal", "scale": 2.0, "seed": null, "mode": "fan_in"}, "class_name": "VarianceScaling"}, "activation": "linear", "padding": "valid", "kernel_constraint": null, "filters": 1024, "kernel_regularizer": null, "strides": [1, 1], "trainable": false, "bias_constraint": null, "activity_regularizer": null, "bias_initializer": {"config": {}, "class_name": "Zeros"}, "kernel_size": [1, 1], "name": "res4d_branch2c", "data_format": "channels_last", "bias_regularizer": null, "use_bias": true, "dilation_rate": [1, 1]}, "class_name": "Conv2D", "name": "res4d_branch2c", "inbound_nodes": [[["activation_82", 0, 0, {}]]]}, {"config": {"gamma_initializer": {"config": {}, "class_name": "Ones"}, "axis": 3, "beta_initializer": {"config": {}, "class_name": "Zeros"}, "moving_mean_initializer": {"config": {}, "class_name": "Zeros"}, "gamma_constraint": null, "gamma_regularizer": null, "trainable": false, "moving_variance_initializer": {"config": {}, "class_name": "Ones"}, "scale": true, "beta_constraint": null, "epsilon": 0.001, "name": "bn4d_branch2c", "momentum": 0.99, "beta_regularizer": null, "center": true}, "class_name": "BatchNormalization", "name": "bn4d_branch2c", "inbound_nodes": [[["res4d_branch2c", 0, 0, {}]]]}, {"config": {"name": "add_27", "trainable": false}, "class_name": "Add", "name": "add_27", "inbound_nodes": [[["bn4d_branch2c", 0, 0, {}], ["activation_80", 0, 0, {}]]]}, {"config": {"name": "activation_83", "activation": "relu", "trainable": false}, "class_name": "Activation", "name": "activation_83", "inbound_nodes": [[["add_27", 0, 0, {}]]]}, {"config": {"kernel_initializer": {"config": {"distribution": "normal", "scale": 2.0, "seed": null, "mode": "fan_in"}, "class_name": "VarianceScaling"}, "activation": "linear", "padding": "valid", "kernel_constraint": null, "filters": 256, "kernel_regularizer": null, "strides": [1, 1], "trainable": false, "bias_constraint": null, "activity_regularizer": null, "bias_initializer": {"config": {}, "class_name": "Zeros"}, "kernel_size": [1, 1], "name": "res4e_branch2a", "data_format": "channels_last", "bias_regularizer": null, "use_bias": true, "dilation_rate": [1, 1]}, "class_name": "Conv2D", "name": "res4e_branch2a", "inbound_nodes": [[["activation_83", 0, 0, {}]]]}, {"config": {"gamma_initializer": {"config": {}, "class_name": "Ones"}, "axis": 3, "beta_initializer": {"config": {}, "class_name": "Zeros"}, "moving_mean_initializer": {"config": {}, "class_name": "Zeros"}, "gamma_constraint": null, "gamma_regularizer": null, "trainable": false, "moving_variance_initializer": {"config": {}, "class_name": "Ones"}, "scale": true, "beta_constraint": null, "epsilon": 0.001, "name": "bn4e_branch2a", "momentum": 0.99, "beta_regularizer": null, "center": true}, "class_name": "BatchNormalization", "name": "bn4e_branch2a", "inbound_nodes": [[["res4e_branch2a", 0, 0, {}]]]}, {"config": {"name": "activation_84", "activation": "relu", "trainable": false}, "class_name": "Activation", "name": "activation_84", "inbound_nodes": [[["bn4e_branch2a", 0, 0, {}]]]}, {"config": {"kernel_initializer": {"config": {"distribution": "normal", "scale": 2.0, "seed": null, "mode": "fan_in"}, "class_name": "VarianceScaling"}, "activation": "linear", "padding": "same", "kernel_constraint": null, "filters": 256, "kernel_regularizer": null, "strides": [1, 1], "trainable": false, "bias_constraint": null, "activity_regularizer": null, "bias_initializer": {"config": {}, "class_name": "Zeros"}, "kernel_size": [3, 3], "name": "res4e_branch2b", "data_format": "channels_last", "bias_regularizer": null, "use_bias": true, "dilation_rate": [1, 1]}, "class_name": "Conv2D", "name": "res4e_branch2b", "inbound_nodes": [[["activation_84", 0, 0, {}]]]}, {"config": {"gamma_initializer": {"config": {}, "class_name": "Ones"}, "axis": 3, "beta_initializer": {"config": {}, "class_name": "Zeros"}, "moving_mean_initializer": {"config": {}, "class_name": "Zeros"}, "gamma_constraint": null, "gamma_regularizer": null, "trainable": false, "moving_variance_initializer": {"config": {}, "class_name": "Ones"}, "scale": true, "beta_constraint": null, "epsilon": 0.001, "name": "bn4e_branch2b", "momentum": 0.99, "beta_regularizer": null, "center": true}, "class_name": "BatchNormalization", "name": "bn4e_branch2b", "inbound_nodes": [[["res4e_branch2b", 0, 0, {}]]]}, {"config": {"name": "activation_85", "activation": "relu", "trainable": false}, "class_name": "Activation", "name": "activation_85", "inbound_nodes": [[["bn4e_branch2b", 0, 0, {}]]]}, {"config": {"kernel_initializer": {"config": {"distribution": "normal", "scale": 2.0, "seed": null, "mode": "fan_in"}, "class_name": "VarianceScaling"}, "activation": "linear", "padding": "valid", "kernel_constraint": null, "filters": 1024, "kernel_regularizer": null, "strides": [1, 1], "trainable": false, "bias_constraint": null, "activity_regularizer": null, "bias_initializer": {"config": {}, "class_name": "Zeros"}, "kernel_size": [1, 1], "name": "res4e_branch2c", "data_format": "channels_last", "bias_regularizer": null, "use_bias": true, "dilation_rate": [1, 1]}, "class_name": "Conv2D", "name": "res4e_branch2c", "inbound_nodes": [[["activation_85", 0, 0, {}]]]}, {"config": {"gamma_initializer": {"config": {}, "class_name": "Ones"}, "axis": 3, "beta_initializer": {"config": {}, "class_name": "Zeros"}, "moving_mean_initializer": {"config": {}, "class_name": "Zeros"}, "gamma_constraint": null, "gamma_regularizer": null, "trainable": false, "moving_variance_initializer": {"config": {}, "class_name": "Ones"}, "scale": true, "beta_constraint": null, "epsilon": 0.001, "name": "bn4e_branch2c", "momentum": 0.99, "beta_regularizer": null, "center": true}, "class_name": "BatchNormalization", "name": "bn4e_branch2c", "inbound_nodes": [[["res4e_branch2c", 0, 0, {}]]]}, {"config": {"name": "add_28", "trainable": false}, "class_name": "Add", "name": "add_28", "inbound_nodes": [[["bn4e_branch2c", 0, 0, {}], ["activation_83", 0, 0, {}]]]}, {"config": {"name": "activation_86", "activation": "relu", "trainable": false}, "class_name": "Activation", "name": "activation_86", "inbound_nodes": [[["add_28", 0, 0, {}]]]}, {"config": {"kernel_initializer": {"config": {"distribution": "normal", "scale": 2.0, "seed": null, "mode": "fan_in"}, "class_name": "VarianceScaling"}, "activation": "linear", "padding": "valid", "kernel_constraint": null, "filters": 256, "kernel_regularizer": null, "strides": [1, 1], "trainable": false, "bias_constraint": null, "activity_regularizer": null, "bias_initializer": {"config": {}, "class_name": "Zeros"}, "kernel_size": [1, 1], "name": "res4f_branch2a", "data_format": "channels_last", "bias_regularizer": null, "use_bias": true, "dilation_rate": [1, 1]}, "class_name": "Conv2D", "name": "res4f_branch2a", "inbound_nodes": [[["activation_86", 0, 0, {}]]]}, {"config": {"gamma_initializer": {"config": {}, "class_name": "Ones"}, "axis": 3, "beta_initializer": {"config": {}, "class_name": "Zeros"}, "moving_mean_initializer": {"config": {}, "class_name": "Zeros"}, "gamma_constraint": null, "gamma_regularizer": null, "trainable": false, "moving_variance_initializer": {"config": {}, "class_name": "Ones"}, "scale": true, "beta_constraint": null, "epsilon": 0.001, "name": "bn4f_branch2a", "momentum": 0.99, "beta_regularizer": null, "center": true}, "class_name": "BatchNormalization", "name": "bn4f_branch2a", "inbound_nodes": [[["res4f_branch2a", 0, 0, {}]]]}, {"config": {"name": "activation_87", "activation": "relu", "trainable": false}, "class_name": "Activation", "name": "activation_87", "inbound_nodes": [[["bn4f_branch2a", 0, 0, {}]]]}, {"config": {"kernel_initializer": {"config": {"distribution": "normal", "scale": 2.0, "seed": null, "mode": "fan_in"}, "class_name": "VarianceScaling"}, "activation": "linear", "padding": "same", "kernel_constraint": null, "filters": 256, "kernel_regularizer": null, "strides": [1, 1], "trainable": false, "bias_constraint": null, "activity_regularizer": null, "bias_initializer": {"config": {}, "class_name": "Zeros"}, "kernel_size": [3, 3], "name": "res4f_branch2b", "data_format": "channels_last", "bias_regularizer": null, "use_bias": true, "dilation_rate": [1, 1]}, "class_name": "Conv2D", "name": "res4f_branch2b", "inbound_nodes": [[["activation_87", 0, 0, {}]]]}, {"config": {"gamma_initializer": {"config": {}, "class_name": "Ones"}, "axis": 3, "beta_initializer": {"config": {}, "class_name": "Zeros"}, "moving_mean_initializer": {"config": {}, "class_name": "Zeros"}, "gamma_constraint": null, "gamma_regularizer": null, "trainable": false, "moving_variance_initializer": {"config": {}, "class_name": "Ones"}, "scale": true, "beta_constraint": null, "epsilon": 0.001, "name": "bn4f_branch2b", "momentum": 0.99, "beta_regularizer": null, "center": true}, "class_name": "BatchNormalization", "name": "bn4f_branch2b", "inbound_nodes": [[["res4f_branch2b", 0, 0, {}]]]}, {"config": {"name": "activation_88", "activation": "relu", "trainable": false}, "class_name": "Activation", "name": "activation_88", "inbound_nodes": [[["bn4f_branch2b", 0, 0, {}]]]}, {"config": {"kernel_initializer": {"config": {"distribution": "normal", "scale": 2.0, "seed": null, "mode": "fan_in"}, "class_name": "VarianceScaling"}, "activation": "linear", "padding": "valid", "kernel_constraint": null, "filters": 1024, "kernel_regularizer": null, "strides": [1, 1], "trainable": false, "bias_constraint": null, "activity_regularizer": null, "bias_initializer": {"config": {}, "class_name": "Zeros"}, "kernel_size": [1, 1], "name": "res4f_branch2c", "data_format": "channels_last", "bias_regularizer": null, "use_bias": true, "dilation_rate": [1, 1]}, "class_name": "Conv2D", "name": "res4f_branch2c", "inbound_nodes": [[["activation_88", 0, 0, {}]]]}, {"config": {"gamma_initializer": {"config": {}, "class_name": "Ones"}, "axis": 3, "beta_initializer": {"config": {}, "class_name": "Zeros"}, "moving_mean_initializer": {"config": {}, "class_name": "Zeros"}, "gamma_constraint": null, "gamma_regularizer": null, "trainable": false, "moving_variance_initializer": {"config": {}, "class_name": "Ones"}, "scale": true, "beta_constraint": null, "epsilon": 0.001, "name": "bn4f_branch2c", "momentum": 0.99, "beta_regularizer": null, "center": true}, "class_name": "BatchNormalization", "name": "bn4f_branch2c", "inbound_nodes": [[["res4f_branch2c", 0, 0, {}]]]}, {"config": {"name": "add_29", "trainable": false}, "class_name": "Add", "name": "add_29", "inbound_nodes": [[["bn4f_branch2c", 0, 0, {}], ["activation_86", 0, 0, {}]]]}, {"config": {"name": "activation_89", "activation": "relu", "trainable": false}, "class_name": "Activation", "name": "activation_89", "inbound_nodes": [[["add_29", 0, 0, {}]]]}, {"config": {"kernel_initializer": {"config": {"distribution": "normal", "scale": 2.0, "seed": null, "mode": "fan_in"}, "class_name": "VarianceScaling"}, "activation": "linear", "padding": "valid", "kernel_constraint": null, "filters": 512, "kernel_regularizer": null, "strides": [2, 2], "trainable": false, "bias_constraint": null, "activity_regularizer": null, "bias_initializer": {"config": {}, "class_name": "Zeros"}, "kernel_size": [1, 1], "name": "res5a_branch2a", "data_format": "channels_last", "bias_regularizer": null, "use_bias": true, "dilation_rate": [1, 1]}, "class_name": "Conv2D", "name": "res5a_branch2a", "inbound_nodes": [[["activation_89", 0, 0, {}]]]}, {"config": {"gamma_initializer": {"config": {}, "class_name": "Ones"}, "axis": 3, "beta_initializer": {"config": {}, "class_name": "Zeros"}, "moving_mean_initializer": {"config": {}, "class_name": "Zeros"}, "gamma_constraint": null, "gamma_regularizer": null, "trainable": false, "moving_variance_initializer": {"config": {}, "class_name": "Ones"}, "scale": true, "beta_constraint": null, "epsilon": 0.001, "name": "bn5a_branch2a", "momentum": 0.99, "beta_regularizer": null, "center": true}, "class_name": "BatchNormalization", "name": "bn5a_branch2a", "inbound_nodes": [[["res5a_branch2a", 0, 0, {}]]]}, {"config": {"name": "activation_90", "activation": "relu", "trainable": false}, "class_name": "Activation", "name": "activation_90", "inbound_nodes": [[["bn5a_branch2a", 0, 0, {}]]]}, {"config": {"kernel_initializer": {"config": {"distribution": "normal", "scale": 2.0, "seed": null, "mode": "fan_in"}, "class_name": "VarianceScaling"}, "activation": "linear", "padding": "same", "kernel_constraint": null, "filters": 512, "kernel_regularizer": null, "strides": [1, 1], "trainable": false, "bias_constraint": null, "activity_regularizer": null, "bias_initializer": {"config": {}, "class_name": "Zeros"}, "kernel_size": [3, 3], "name": "res5a_branch2b", "data_format": "channels_last", "bias_regularizer": null, "use_bias": true, "dilation_rate": [1, 1]}, "class_name": "Conv2D", "name": "res5a_branch2b", "inbound_nodes": [[["activation_90", 0, 0, {}]]]}, {"config": {"gamma_initializer": {"config": {}, "class_name": "Ones"}, "axis": 3, "beta_initializer": {"config": {}, "class_name": "Zeros"}, "moving_mean_initializer": {"config": {}, "class_name": "Zeros"}, "gamma_constraint": null, "gamma_regularizer": null, "trainable": false, "moving_variance_initializer": {"config": {}, "class_name": "Ones"}, "scale": true, "beta_constraint": null, "epsilon": 0.001, "name": "bn5a_branch2b", "momentum": 0.99, "beta_regularizer": null, "center": true}, "class_name": "BatchNormalization", "name": "bn5a_branch2b", "inbound_nodes": [[["res5a_branch2b", 0, 0, {}]]]}, {"config": {"name": "activation_91", "activation": "relu", "trainable": false}, "class_name": "Activation", "name": "activation_91", "inbound_nodes": [[["bn5a_branch2b", 0, 0, {}]]]}, {"config": {"kernel_initializer": {"config": {"distribution": "normal", "scale": 2.0, "seed": null, "mode": "fan_in"}, "class_name": "VarianceScaling"}, "activation": "linear", "padding": "valid", "kernel_constraint": null, "filters": 2048, "kernel_regularizer": null, "strides": [1, 1], "trainable": false, "bias_constraint": null, "activity_regularizer": null, "bias_initializer": {"config": {}, "class_name": "Zeros"}, "kernel_size": [1, 1], "name": "res5a_branch2c", "data_format": "channels_last", "bias_regularizer": null, "use_bias": true, "dilation_rate": [1, 1]}, "class_name": "Conv2D", "name": "res5a_branch2c", "inbound_nodes": [[["activation_91", 0, 0, {}]]]}, {"config": {"kernel_initializer": {"config": {"distribution": "normal", "scale": 2.0, "seed": null, "mode": "fan_in"}, "class_name": "VarianceScaling"}, "activation": "linear", "padding": "valid", "kernel_constraint": null, "filters": 2048, "kernel_regularizer": null, "strides": [2, 2], "trainable": false, "bias_constraint": null, "activity_regularizer": null, "bias_initializer": {"config": {}, "class_name": "Zeros"}, "kernel_size": [1, 1], "name": "res5a_branch1", "data_format": "channels_last", "bias_regularizer": null, "use_bias": true, "dilation_rate": [1, 1]}, "class_name": "Conv2D", "name": "res5a_branch1", "inbound_nodes": [[["activation_89", 0, 0, {}]]]}, {"config": {"gamma_initializer": {"config": {}, "class_name": "Ones"}, "axis": 3, "beta_initializer": {"config": {}, "class_name": "Zeros"}, "moving_mean_initializer": {"config": {}, "class_name": "Zeros"}, "gamma_constraint": null, "gamma_regularizer": null, "trainable": false, "moving_variance_initializer": {"config": {}, "class_name": "Ones"}, "scale": true, "beta_constraint": null, "epsilon": 0.001, "name": "bn5a_branch2c", "momentum": 0.99, "beta_regularizer": null, "center": true}, "class_name": "BatchNormalization", "name": "bn5a_branch2c", "inbound_nodes": [[["res5a_branch2c", 0, 0, {}]]]}, {"config": {"gamma_initializer": {"config": {}, "class_name": "Ones"}, "axis": 3, "beta_initializer": {"config": {}, "class_name": "Zeros"}, "moving_mean_initializer": {"config": {}, "class_name": "Zeros"}, "gamma_constraint": null, "gamma_regularizer": null, "trainable": false, "moving_variance_initializer": {"config": {}, "class_name": "Ones"}, "scale": true, "beta_constraint": null, "epsilon": 0.001, "name": "bn5a_branch1", "momentum": 0.99, "beta_regularizer": null, "center": true}, "class_name": "BatchNormalization", "name": "bn5a_branch1", "inbound_nodes": [[["res5a_branch1", 0, 0, {}]]]}, {"config": {"name": "add_30", "trainable": false}, "class_name": "Add", "name": "add_30", "inbound_nodes": [[["bn5a_branch2c", 0, 0, {}], ["bn5a_branch1", 0, 0, {}]]]}, {"config": {"name": "activation_92", "activation": "relu", "trainable": false}, "class_name": "Activation", "name": "activation_92", "inbound_nodes": [[["add_30", 0, 0, {}]]]}, {"config": {"kernel_initializer": {"config": {"distribution": "normal", "scale": 2.0, "seed": null, "mode": "fan_in"}, "class_name": "VarianceScaling"}, "activation": "linear", "padding": "valid", "kernel_constraint": null, "filters": 512, "kernel_regularizer": null, "strides": [1, 1], "trainable": false, "bias_constraint": null, "activity_regularizer": null, "bias_initializer": {"config": {}, "class_name": "Zeros"}, "kernel_size": [1, 1], "name": "res5b_branch2a", "data_format": "channels_last", "bias_regularizer": null, "use_bias": true, "dilation_rate": [1, 1]}, "class_name": "Conv2D", "name": "res5b_branch2a", "inbound_nodes": [[["activation_92", 0, 0, {}]]]}, {"config": {"gamma_initializer": {"config": {}, "class_name": "Ones"}, "axis": 3, "beta_initializer": {"config": {}, "class_name": "Zeros"}, "moving_mean_initializer": {"config": {}, "class_name": "Zeros"}, "gamma_constraint": null, "gamma_regularizer": null, "trainable": false, "moving_variance_initializer": {"config": {}, "class_name": "Ones"}, "scale": true, "beta_constraint": null, "epsilon": 0.001, "name": "bn5b_branch2a", "momentum": 0.99, "beta_regularizer": null, "center": true}, "class_name": "BatchNormalization", "name": "bn5b_branch2a", "inbound_nodes": [[["res5b_branch2a", 0, 0, {}]]]}, {"config": {"name": "activation_93", "activation": "relu", "trainable": false}, "class_name": "Activation", "name": "activation_93", "inbound_nodes": [[["bn5b_branch2a", 0, 0, {}]]]}, {"config": {"kernel_initializer": {"config": {"distribution": "normal", "scale": 2.0, "seed": null, "mode": "fan_in"}, "class_name": "VarianceScaling"}, "activation": "linear", "padding": "same", "kernel_constraint": null, "filters": 512, "kernel_regularizer": null, "strides": [1, 1], "trainable": false, "bias_constraint": null, "activity_regularizer": null, "bias_initializer": {"config": {}, "class_name": "Zeros"}, "kernel_size": [3, 3], "name": "res5b_branch2b", "data_format": "channels_last", "bias_regularizer": null, "use_bias": true, "dilation_rate": [1, 1]}, "class_name": "Conv2D", "name": "res5b_branch2b", "inbound_nodes": [[["activation_93", 0, 0, {}]]]}, {"config": {"gamma_initializer": {"config": {}, "class_name": "Ones"}, "axis": 3, "beta_initializer": {"config": {}, "class_name": "Zeros"}, "moving_mean_initializer": {"config": {}, "class_name": "Zeros"}, "gamma_constraint": null, "gamma_regularizer": null, "trainable": false, "moving_variance_initializer": {"config": {}, "class_name": "Ones"}, "scale": true, "beta_constraint": null, "epsilon": 0.001, "name": "bn5b_branch2b", "momentum": 0.99, "beta_regularizer": null, "center": true}, "class_name": "BatchNormalization", "name": "bn5b_branch2b", "inbound_nodes": [[["res5b_branch2b", 0, 0, {}]]]}, {"config": {"name": "activation_94", "activation": "relu", "trainable": false}, "class_name": "Activation", "name": "activation_94", "inbound_nodes": [[["bn5b_branch2b", 0, 0, {}]]]}, {"config": {"kernel_initializer": {"config": {"distribution": "normal", "scale": 2.0, "seed": null, "mode": "fan_in"}, "class_name": "VarianceScaling"}, "activation": "linear", "padding": "valid", "kernel_constraint": null, "filters": 2048, "kernel_regularizer": null, "strides": [1, 1], "trainable": false, "bias_constraint": null, "activity_regularizer": null, "bias_initializer": {"config": {}, "class_name": "Zeros"}, "kernel_size": [1, 1], "name": "res5b_branch2c", "data_format": "channels_last", "bias_regularizer": null, "use_bias": true, "dilation_rate": [1, 1]}, "class_name": "Conv2D", "name": "res5b_branch2c", "inbound_nodes": [[["activation_94", 0, 0, {}]]]}, {"config": {"gamma_initializer": {"config": {}, "class_name": "Ones"}, "axis": 3, "beta_initializer": {"config": {}, "class_name": "Zeros"}, "moving_mean_initializer": {"config": {}, "class_name": "Zeros"}, "gamma_constraint": null, "gamma_regularizer": null, "trainable": false, "moving_variance_initializer": {"config": {}, "class_name": "Ones"}, "scale": true, "beta_constraint": null, "epsilon": 0.001, "name": "bn5b_branch2c", "momentum": 0.99, "beta_regularizer": null, "center": true}, "class_name": "BatchNormalization", "name": "bn5b_branch2c", "inbound_nodes": [[["res5b_branch2c", 0, 0, {}]]]}, {"config": {"name": "add_31", "trainable": false}, "class_name": "Add", "name": "add_31", "inbound_nodes": [[["bn5b_branch2c", 0, 0, {}], ["activation_92", 0, 0, {}]]]}, {"config": {"name": "activation_95", "activation": "relu", "trainable": false}, "class_name": "Activation", "name": "activation_95", "inbound_nodes": [[["add_31", 0, 0, {}]]]}, {"config": {"kernel_initializer": {"config": {"distribution": "normal", "scale": 2.0, "seed": null, "mode": "fan_in"}, "class_name": "VarianceScaling"}, "activation": "linear", "padding": "valid", "kernel_constraint": null, "filters": 512, "kernel_regularizer": null, "strides": [1, 1], "trainable": false, "bias_constraint": null, "activity_regularizer": null, "bias_initializer": {"config": {}, "class_name": "Zeros"}, "kernel_size": [1, 1], "name": "res5c_branch2a", "data_format": "channels_last", "bias_regularizer": null, "use_bias": true, "dilation_rate": [1, 1]}, "class_name": "Conv2D", "name": "res5c_branch2a", "inbound_nodes": [[["activation_95", 0, 0, {}]]]}, {"config": {"gamma_initializer": {"config": {}, "class_name": "Ones"}, "axis": 3, "beta_initializer": {"config": {}, "class_name": "Zeros"}, "moving_mean_initializer": {"config": {}, "class_name": "Zeros"}, "gamma_constraint": null, "gamma_regularizer": null, "trainable": false, "moving_variance_initializer": {"config": {}, "class_name": "Ones"}, "scale": true, "beta_constraint": null, "epsilon": 0.001, "name": "bn5c_branch2a", "momentum": 0.99, "beta_regularizer": null, "center": true}, "class_name": "BatchNormalization", "name": "bn5c_branch2a", "inbound_nodes": [[["res5c_branch2a", 0, 0, {}]]]}, {"config": {"name": "activation_96", "activation": "relu", "trainable": false}, "class_name": "Activation", "name": "activation_96", "inbound_nodes": [[["bn5c_branch2a", 0, 0, {}]]]}, {"config": {"kernel_initializer": {"config": {"distribution": "normal", "scale": 2.0, "seed": null, "mode": "fan_in"}, "class_name": "VarianceScaling"}, "activation": "linear", "padding": "same", "kernel_constraint": null, "filters": 512, "kernel_regularizer": null, "strides": [1, 1], "trainable": false, "bias_constraint": null, "activity_regularizer": null, "bias_initializer": {"config": {}, "class_name": "Zeros"}, "kernel_size": [3, 3], "name": "res5c_branch2b", "data_format": "channels_last", "bias_regularizer": null, "use_bias": true, "dilation_rate": [1, 1]}, "class_name": "Conv2D", "name": "res5c_branch2b", "inbound_nodes": [[["activation_96", 0, 0, {}]]]}, {"config": {"gamma_initializer": {"config": {}, "class_name": "Ones"}, "axis": 3, "beta_initializer": {"config": {}, "class_name": "Zeros"}, "moving_mean_initializer": {"config": {}, "class_name": "Zeros"}, "gamma_constraint": null, "gamma_regularizer": null, "trainable": false, "moving_variance_initializer": {"config": {}, "class_name": "Ones"}, "scale": true, "beta_constraint": null, "epsilon": 0.001, "name": "bn5c_branch2b", "momentum": 0.99, "beta_regularizer": null, "center": true}, "class_name": "BatchNormalization", "name": "bn5c_branch2b", "inbound_nodes": [[["res5c_branch2b", 0, 0, {}]]]}, {"config": {"name": "activation_97", "activation": "relu", "trainable": false}, "class_name": "Activation", "name": "activation_97", "inbound_nodes": [[["bn5c_branch2b", 0, 0, {}]]]}, {"config": {"kernel_initializer": {"config": {"distribution": "normal", "scale": 2.0, "seed": null, "mode": "fan_in"}, "class_name": "VarianceScaling"}, "activation": "linear", "padding": "valid", "kernel_constraint": null, "filters": 2048, "kernel_regularizer": null, "strides": [1, 1], "trainable": false, "bias_constraint": null, "activity_regularizer": null, "bias_initializer": {"config": {}, "class_name": "Zeros"}, "kernel_size": [1, 1], "name": "res5c_branch2c", "data_format": "channels_last", "bias_regularizer": null, "use_bias": true, "dilation_rate": [1, 1]}, "class_name": "Conv2D", "name": "res5c_branch2c", "inbound_nodes": [[["activation_97", 0, 0, {}]]]}, {"config": {"gamma_initializer": {"config": {}, "class_name": "Ones"}, "axis": 3, "beta_initializer": {"config": {}, "class_name": "Zeros"}, "moving_mean_initializer": {"config": {}, "class_name": "Zeros"}, "gamma_constraint": null, "gamma_regularizer": null, "trainable": false, "moving_variance_initializer": {"config": {}, "class_name": "Ones"}, "scale": true, "beta_constraint": null, "epsilon": 0.001, "name": "bn5c_branch2c", "momentum": 0.99, "beta_regularizer": null, "center": true}, "class_name": "BatchNormalization", "name": "bn5c_branch2c", "inbound_nodes": [[["res5c_branch2c", 0, 0, {}]]]}, {"config": {"name": "add_32", "trainable": false}, "class_name": "Add", "name": "add_32", "inbound_nodes": [[["bn5c_branch2c", 0, 0, {}], ["activation_95", 0, 0, {}]]]}, {"config": {"name": "activation_98", "activation": "relu", "trainable": false}, "class_name": "Activation", "name": "activation_98", "inbound_nodes": [[["add_32", 0, 0, {}]]]}, {"config": {"data_format": "channels_last", "name": "global_average_pooling2d_1", "trainable": true}, "class_name": "GlobalAveragePooling2D", "name": "global_average_pooling2d_1", "inbound_nodes": [[["activation_98", 0, 0, {}]]]}, {"config": {"name": "dense_1", "activation": "relu", "bias_constraint": null, "kernel_regularizer": null, "units": 128, "trainable": true, "kernel_constraint": null, "activity_regularizer": null, "kernel_initializer": {"config": {"distribution": "uniform", "scale": 1.0, "seed": null, "mode": "fan_avg"}, "class_name": "VarianceScaling"}, "use_bias": true, "bias_regularizer": null, "bias_initializer": {"config": {}, "class_name": "Zeros"}}, "class_name": "Dense", "name": "dense_1", "inbound_nodes": [[["global_average_pooling2d_1", 0, 0, {}]]]}, {"config": {"name": "dense_2", "activation": "softmax", "bias_constraint": null, "kernel_regularizer": null, "units": 2, "trainable": true, "kernel_constraint": null, "activity_regularizer": null, "kernel_initializer": {"config": {"distribution": "uniform", "scale": 1.0, "seed": null, "mode": "fan_avg"}, "class_name": "VarianceScaling"}, "use_bias": true, "bias_regularizer": null, "bias_initializer": {"config": {}, "class_name": "Zeros"}}, "class_name": "Dense", "name": "dense_2", "inbound_nodes": [[["dense_1", 0, 0, {}]]]}]}, "class_name": "Model", "keras_version": "2.2.4", "backend": "tensorflow"}